rhodesli_ml/artifacts/calibration_v1.pt (torch, 134152 bytes, 3 tensors)

net.0.weight f4 [32, 1024]
0	0xbd2ec9bc	-0.042672858
1	0xbd61c604	-0.055120483
2	0xbd0bfd26	-0.034176968
3	0x3c4f13fb	0.012639041
4	0xbcce322c	-0.025170408
5	0xbce46418	-0.02787976
6	0xbd259793	-0.040427756
7	0xbca87448	-0.02056326
8	0xbc190b68	-0.009341098
9	0xbc562332	-0.013069915
10	0xbcbbe33c	-0.022935502
11	0xbd209105	-0.0392008
12	0xbca343ee	-0.019929852
13	0xbcda0eef	-0.026618449
14	0xbc3c85f2	-0.011506544
15	0xbc3171c3	-0.010830346
16	0xbb378881	-0.0028004947
17	0x3c131815	0.00897791
18	0xbd3c3aaa	-0.045954384
19	0xbcb490a3	-0.022041624
20	0x3c228948	0.009920426
21	0xbd687de1	-0.056760672
22	0xbc7987c3	-0.015230122
23	0x3bc7d402	0.0060982713
24	0xba92e72a	-0.0011207808
25	0xbbad1617	-0.0052821743
26	0x3c3d2d8f	0.011546507
27	0xbc971317	-0.01844172
28	0xbd060749	-0.03272179
29	0xbd44598b	-0.047936957
30	0xbd4301f5	-0.04760929
31	0xbcceb7ea	-0.025234181
32	0x3c99d202	0.018776897
33	0x3c7974c9	0.015225598
34	0xbd78a6d7	-0.060705986
35	0x3cd4153a	0.025889028
36	0x3c29d1b1	0.010364936
37	0x3b633482	0.0034668748
38	0xbd26f8d6	-0.040764652
39	0x3a56e232	0.0008197158
40	0xbc841173	-0.016121602
41	0xbd2f205b	-0.042755466
42	0xbc9f21d8	-0.019425318
43	0xbd0be3c0	-0.034152746
44	0xbd7fa34f	-0.062411603
45	0xbc1b1b49	-0.0094669545
46	0xbcc6c0d4	-0.02426187
47	0xbcd8448c	-0.026399873
48	0xbc5b43a7	-0.013382829
49	0xbb0ec84e	-0.0021786871
50	0xbce6191e	-0.028088149
51	0xbd066796	-0.03281363
52	0xbd08b19a	-0.0333725
53	0xbd255a8e	-0.040369563
54	0xbb7093d5	-0.0036709209
55	0xbc9e2051	-0.019302519
56	0xbc74271b	-0.014901902
57	0xbcda4340	-0.026643395
58	0xbc8c2b57	-0.01711051
59	0xbccd3f2a	-0.025054533
60	0xba8a7358	-0.001056294
61	0xbcaaf79b	-0.02087002
62	0xbca5692e	-0.020191755
63	0xbc896515	-0.016771832
64	0xbd445392	-0.04793126
65	0xbd7af03f	-0.061264273
66	0xbbb390ab	-0.0054798923
67	0xbd0cbba1	-0.034358624
68	0xbc63f836	-0.013914159
69	0xbbf2cd2c	-0.0074097123
70	0xbb162d5c	-0.002291522
71	0x3c6bf504	0.014401678
72	0xbcee16d8	-0.029063627
73	0x3d16f959	0.03685889
74	0xbd09ad40	-0.03361249
75	0x3c2fdf3d	0.0107343765
76	0xbd3e7a28	-0.046503216
77	0x3b120e94	0.0022286521
78	0xbc2423b9	-0.010018283
79	0xbd07aa29	-0.03312126
80	0x3c1ccbae	0.009570045
81	0xbb50c809	-0.0031857511
82	0xbd131c65	-0.03591575
83	0xbd6fd268	-0.05855027
84	0xbcdba5fa	-0.026812542
85	0xba12fcf0	-0.00056071486
86	0xbcf3348d	-0.029688144
87	0xbb3e5a02	-0.0029045348
88	0xbbcffe0f	-0.006347425
89	0xbc7df24e	-0.0154996645
90	0xbd756631	-0.05991191
91	0x3cba9e93	0.022780692
92	0xbd85777e	-0.06516932
93	0xbd1ae82e	-0.03781908
94	0xbcb6624c	-0.022263668
95	0xbd268cb0	-0.040661514
96	0xbd27e1ea	-0.040986933
97	0xbd580a7b	-0.05274437
98	0x3bd273db	0.0064225025
99	0xbd86d6cd	-0.06583939
100	0xbcea9e34	-0.02863989
101	0xbbaa9cab	-0.0052066646
102	0xbcb2047a	-0.02173065
103	0xbd182cf0	-0.03715223
104	0xbcf03d77	-0.029326184
105	0xbd494f67	-0.04914799
106	0xbca0a610	-0.019610435
107	0x3cb137eb	0.02163311
108	0xbd149526	-0.03627505
109	0xbb95a5ba	-0.0045668753
110	0xbd1d78cf	-0.03844529
111	0xbc8f2479	-0.017473446
112	0xbcb5b1c9	-0.022179501
113	0xbd428d06	-0.04749777
114	0xbcda3188	-0.026634946
115	0xbcc073e0	-0.023492754
116	0xbcea3572	-0.028589938
117	0xbca1733a	-0.019708265
118	0xbcd35f32	-0.025802229
119	0xbc873090	-0.016502649
120	0xbbefa391	-0.0073132
121	0xbc414751	-0.011796788
122	0xbd614f59	-0.055007312
123	0xbd01a9af	-0.031655964
124	0xbce13a0d	-0.027493501
125	0xbc30b5ff	-0.010785579
126	0xbc30521e	-0.010761766
127	0x395712a4	0.00020510942
128	0xbcae317b	-0.021263829
129	0xbd414e2d	-0.047193695
130	0xbc3cee44	-0.011531416
131	0xbbb319c3	-0.0054657175
132	0xbd7ce23a	-0.061739184
133	0xbb9597f8	-0.004565235
134	0xbd940e85	-0.07229332
135	0xbb74bd7a	-0.0037344382
136	0xbd11f42d	-0.035633255
137	0xbc4cb303	-0.012493852
138	0xbc038017	-0.0080261445
139	0x3d207f25	0.039183754
140	0xbc6dff70	-0.014526233
141	0xbcc72748	-0.024310723
142	0xbb1330db	-0.002245954
143	0x3d47387a	0.048637845
144	0x3bd9a6f5	0.0066422173
145	0xbbba6ccd	-0.0056892396
146	0xbcfb7e58	-0.030699894
147	0xbcff7618	-0.031184241
148	0x3c0af5a8	0.008481421
149	0xbca55a65	-0.020184705
150	0xbc867781	-0.016414406
151	0x396d4905	0.00022629283
152	0x3c7f404b	0.0155792935
153	0xbd08c167	-0.033387568
154	0x3c95f31d	0.018304402
155	0xbcab3c2e	-0.02090272
156	0x3ab6762e	0.0013920718
157	0xbc3f7edd	-0.011687961
158	0xbc591142	-0.0132487435
159	0xbd4fb439	-0.050708983
160	0xbc3a659d	-0.011376766
161	0xbc570483	-0.013123634
162	0xbca00e57	-0.019538088
163	0xbc73fd92	-0.014891999
164	0xbcff9ed7	-0.03120367
165	0x3c9dc35e	0.019258197
166	0xbcccfc7b	-0.025022736
167	0x3bdb69d5	0.006695966
168	0xbb5f4bdc	-0.0034072315
169	0xbd40f1e9	-0.047105704
170	0xbc01518f	-0.00789298
171	0xbcb828aa	-0.022480328
172	0x3c57147d	0.013127443
173	0xbb0fc929	-0.002193997
174	0xbbf5da24	-0.007502811
175	0xbcf1c938	-0.029514894
176	0xbbbee611	-0.005825766
177	0xbc73ecc0	-0.014887989
178	0xbb564304	-0.0032693753
179	0xbd2ba345	-0.041903753
180	0x3c36cc60	0.011157125
181	0xbd30cdc9	-0.043165002
182	0xbc8a09fa	-0.01685046
183	0x3caef7de	0.021358427
184	0xba187216	-0.000581534
185	0xbb9b7203	-0.004743816
186	0xbd8950bf	-0.06704854
187	0x3bd47065	0.006483125
188	0xbbddf72c	-0.00677385
189	0xbce406da	-0.027835298
190	0x3d043954	0.032281235
191	0xbc74896f	-0.014925345
192	0x3bf28958	0.0074016266
193	0xbc6e667e	-0.014550803
194	0xbd519483	-0.051167022
195	0xbcd23792	-0.025661264
196	0xbc70cc80	-0.014697194
197	0xbc35bf8f	-0.011093034
198	0xbb8e24d1	-0.004337885
199	0xbd121a6c	-0.03566973
200	0xbd260452	-0.040531464
201	0xbc123b07	-0.008925206
202	0xbcc857f6	-0.024456006
203	0xbac547bb	-0.0015051285
204	0xbd6b4715	-0.057440836
205	0xbd210869	-0.03931466
206	0xbca67b11	-0.020322355
207	0xbd1276e8	-0.03575793
208	0xbc9d97f8	-0.019237503
209	0xbbabc173	-0.005241567
210	0xbbb98561	-0.005661652
211	0x3be1ce13	0.006891021
212	0xbc881fd8	-0.016616747
213	0x3c04045a	0.008057678
214	0xbb2fe87b	-0.002684145
215	0xbd5a8db5	-0.0533578
216	0xbb4e3d75	-0.0031469737
217	0xbc332d43	-0.010936084
218	0x3b2485b6	0.0025104112
219	0x3bb1664e	0.005413807
220	0xbd47b85c	-0.048759803
221	0xbcc00d5c	-0.02344387
222	0x3b0a3c94	0.0021093236
223	0xbd11ce6c	-0.03559725
224	0x3c125184	0.008930568
225	0xbd5499a2	-0.05190433
226	0xbd1340cc	-0.035950467
227	0xbcd09fcd	-0.025466824
228	0xbd55cc0b	-0.052196544
229	0xbd2dba12	-0.04241378
230	0xbcbcb408	-0.023035064
231	0x3c38808d	0.011261118
232	0xbccf124f	-0.025277285
233	0xbd1a4077	-0.037659135
234	0xbc84e9c2	-0.016224746
235	0xbb84f81a	-0.0040578963
236	0x3c0e647e	0.008690951
237	0xbc8460bc	-0.016159408
238	0xbd9549bf	-0.072894566
239	0xbcb486a2	-0.022036854
240	0xbd2694b0	-0.040669143
241	0xbafc995e	-0.0019271781
242	0xbd09ed59	-0.033673618
243	0xbcf08af9	-0.029363142
244	0xbcaa7ea2	-0.020812336
245	0xbc35c882	-0.011095168
246	0xbc80cc30	-0.015722364
247	0xbd22f4ed	-0.03978436
248	0xbcb972f5	-0.022637824
249	0xbd1435ff	-0.036184307
250	0x3bdc7470	0.0067277476
251	0xbcf165fa	-0.029467572
252	0xbd6f2fe5	-0.058395285
253	0xbd4bfd72	-0.04980225
254	0xbca86d64	-0.020559974
255	0xbc0919dd	-0.008367983

net.0.bias f4 [32]
0	0x3efa8e06	0.4893648
1	0xbe8dd76b	-0.27703413
2	0x3f1092e2	0.56474125
3	0xbe965701	-0.29363254
4	0xbe93b327	-0.2884762
5	0x3f112713	0.5670025
6	0xbe8e7945	-0.27826896
7	0xbe8c73a4	-0.27431977
8	0xbe8d6e6d	-0.2762331
9	0xbe8cd09d	-0.2750291
10	0xbe9003a4	-0.28127778
11	0xbe876d12	-0.26450402
12	0xbe92f211	-0.28700307
13	0xbe930b83	-0.2871972
14	0xbe93651e	-0.28788084
15	0xbe999524	-0.29996598
16	0xbe8f867a	-0.28032285
17	0xbe8e221b	-0.27760395
18	0x3f0d8880	0.5528641
19	0x3f0fd39c	0.56182265
20	0xbe960758	-0.29302478
21	0xbe8f4a7d	-0.27986518
22	0x33710086	5.611266e-08
23	0xbe90f602	-0.2831269
24	0xbe8b116b	-0.27161726
25	0x3f034f8f	0.5129327
26	0xbe89aadf	-0.26888177
27	0x3f0def87	0.55443615
28	0xbe904330	-0.2817626
29	0xbe8ffdcb	-0.28123316
30	0xbe91598b	-0.28388628
31	0xbe93ec1a	-0.2889107

net.3.weight f4 [1, 32]
0	0x3f4e3833	0.80554503
1	0xbf278857	-0.65442413
2	0x3f683903	0.9071199
3	0xbf2e3b14	-0.68058896
4	0xbf2ded32	-0.67940056
5	0x3f688744	0.908314
6	0xbf29387b	-0.6610181
7	0xbf27aac9	-0.6549497
8	0xbf286e06	-0.6579288
9	0xbf26da2d	-0.6517666
10	0xbf2a9a0b	-0.666413
11	0xbf24ac8f	-0.64325804
12	0xbf294e40	-0.66135025
13	0xbf2af779	-0.66783863
14	0xbf2d7963	-0.67763346
15	0xbf324ed7	-0.6965155
16	0xbf286546	-0.6577953
17	0xbf2835b9	-0.65706974
18	0x3f60ec93	0.87860984
19	0x3f65337c	0.89531684
20	0xbf2fa0b9	-0.6860462
21	0xbf2866e0	-0.65781975
22	0x348f6a40	2.6713133e-07
23	0xbf2875cf	-0.6580476
24	0xbf25a488	-0.6470418
25	0x3f58573e	0.8450812
26	0xbf235d07	-0.63813823
27	0x3f60d699	0.8782745
28	0xbf2aada8	-0.6667123
29	0xbf296d00	-0.66181946
30	0xbf2d3ada	-0.67667925
31	0xbf2fd258	-0.68680334
